Model: "sequential_1"
_________________________________________________________________
Layer (type)                 Output Shape              Param #   
=================================================================
conv2d_3 (Conv2D)            (None, 28, 28, 28)        728       
_________________________________________________________________
max_pooling2d_3 (MaxPooling2 (None, 14, 14, 28)        0         
_________________________________________________________________
dropout_1 (Dropout)          (None, 14, 14, 28)        0         
_________________________________________________________________
conv2d_4 (Conv2D)            (None, 14, 14, 28)        19628     
_________________________________________________________________
max_pooling2d_4 (MaxPooling2 (None, 7, 7, 28)          0         
_________________________________________________________________
conv2d_5 (Conv2D)            (None, 7, 7, 28)          19628     
_________________________________________________________________
max_pooling2d_5 (MaxPooling2 (None, 3, 3, 28)          0         
_________________________________________________________________
flatten_1 (Flatten)          (None, 252)               0         
_________________________________________________________________
dense_2 (Dense)              (None, 250)               63250     
_________________________________________________________________
dense_3 (Dense)              (None, 10)                2510      
=================================================================
Total params: 105,744
Trainable params: 105,744
Non-trainable params: 0
_________________________________________________________________
